…
Root path:  /home/ec2-user/Single_vs_Ensemble_of_NNs
Script path:  /home/ec2-user/Single_vs_Ensemble_of_NNs/scripts
Results path:  /home/ec2-user/Single_vs_Ensemble_of_NNs/results
DataFolder path:  /home/ec2-user/datasets
Models to save path:  /home/ec2-user/Single_vs_Ensemble_of_NNs/results/models/recursives/ensemble_non_recursives
Models to load path:  /home/ec2-user/Single_vs_Ensemble_of_NNs/results/models/recursives/ensemble_non_recursives/definitives


IMPORTING DATA
--------------
Files already downloaded and verified


LOADING MODELS
----------------
Non Recursive ConvNet
Conv_Net(
  (act): ReLU(inplace)
  (V): Conv2d(3, 32, kernel_size=(8, 8), stride=(1, 1), padding=(3, 3))
  (P): MaxPool2d(kernel_size=4, stride=4, padding=2, dilation=1, ceil_mode=False)
  (W): ModuleList(
    (0): Conv2d(32, 32, kernel_size=(3, 3), stride=(1, 1), padding=(1, 1))
    (1): Conv2d(32, 32, kernel_size=(3, 3), stride=(1, 1), padding=(1, 1))
    (2): Conv2d(32, 32, kernel_size=(3, 3), stride=(1, 1), padding=(1, 1))
    (3): Conv2d(32, 32, kernel_size=(3, 3), stride=(1, 1), padding=(1, 1))
    (4): Conv2d(32, 32, kernel_size=(3, 3), stride=(1, 1), padding=(1, 1))
    (5): Conv2d(32, 32, kernel_size=(3, 3), stride=(1, 1), padding=(1, 1))
    (6): Conv2d(32, 32, kernel_size=(3, 3), stride=(1, 1), padding=(1, 1))
    (7): Conv2d(32, 32, kernel_size=(3, 3), stride=(1, 1), padding=(1, 1))
    (8): Conv2d(32, 32, kernel_size=(3, 3), stride=(1, 1), padding=(1, 1))
    (9): Conv2d(32, 32, kernel_size=(3, 3), stride=(1, 1), padding=(1, 1))
    (10): Conv2d(32, 32, kernel_size=(3, 3), stride=(1, 1), padding=(1, 1))
    (11): Conv2d(32, 32, kernel_size=(3, 3), stride=(1, 1), padding=(1, 1))
    (12): Conv2d(32, 32, kernel_size=(3, 3), stride=(1, 1), padding=(1, 1))
    (13): Conv2d(32, 32, kernel_size=(3, 3), stride=(1, 1), padding=(1, 1))
    (14): Conv2d(32, 32, kernel_size=(3, 3), stride=(1, 1), padding=(1, 1))
    (15): Conv2d(32, 32, kernel_size=(3, 3), stride=(1, 1), padding=(1, 1))
  )
  (C): Linear(in_features=2048, out_features=10, bias=True)
)


		Parameters: 0.174634M


TRAINING
--------
Current set up
[ALERT]: Path to results (this may overwrite /home/ec2-user/Single_vs_Ensemble_of_NNs/results
[ALERT]: Path to checkpoint (this may overwrite None
Do you want to continue? [Y/n]: [OK]: Starting Training of Recursive Ensemble Model

Starting Ensemble Training...

 Train Ensemble: Epoch: [1/500] Iter: [391/195500] Loss: 1.821 Acc: 23.75%
…
