…
+-----------------+----------------------+
|  Architecture   |     DenseNet x7      |
+-----------------+----------------------+
|     Dataset     |       CIFAR10        |
+-----------------+----------------------+
|     Epochs      |         500          |
+-----------------+----------------------+
|   Batch Size    |         128          |
+-----------------+----------------------+
|     Testing     |        False         |
+-----------------+----------------------+
==> Preparing data..
Files already downloaded and verified
Files already downloaded and verified
Regular net
Conv_Net(
  (act): ReLU(inplace)
  (V): Conv2d(3, 32, kernel_size=(8, 8), stride=(1, 1), padding=(3, 3))
  (P): MaxPool2d(kernel_size=4, stride=4, padding=2, dilation=1, ceil_mode=False)
  (W): ModuleList(
    (0): Conv2d(32, 32, kernel_size=(3, 3), stride=(1, 1), padding=(1, 1))
    (1): Conv2d(32, 32, kernel_size=(3, 3), stride=(1, 1), padding=(1, 1))
    (2): Conv2d(32, 32, kernel_size=(3, 3), stride=(1, 1), padding=(1, 1))
    (3): Conv2d(32, 32, kernel_size=(3, 3), stride=(1, 1), padding=(1, 1))
    (4): Conv2d(32, 32, kernel_size=(3, 3), stride=(1, 1), padding=(1, 1))
    (5): Conv2d(32, 32, kernel_size=(3, 3), stride=(1, 1), padding=(1, 1))
    (6): Conv2d(32, 32, kernel_size=(3, 3), stride=(1, 1), padding=(1, 1))
    (7): Conv2d(32, 32, kernel_size=(3, 3), stride=(1, 1), padding=(1, 1))
    (8): Conv2d(32, 32, kernel_size=(3, 3), stride=(1, 1), padding=(1, 1))
    (9): Conv2d(32, 32, kernel_size=(3, 3), stride=(1, 1), padding=(1, 1))
    (10): Conv2d(32, 32, kernel_size=(3, 3), stride=(1, 1), padding=(1, 1))
    (11): Conv2d(32, 32, kernel_size=(3, 3), stride=(1, 1), padding=(1, 1))
    (12): Conv2d(32, 32, kernel_size=(3, 3), stride=(1, 1), padding=(1, 1))
    (13): Conv2d(32, 32, kernel_size=(3, 3), stride=(1, 1), padding=(1, 1))
    (14): Conv2d(32, 32, kernel_size=(3, 3), stride=(1, 1), padding=(1, 1))
    (15): Conv2d(32, 32, kernel_size=(3, 3), stride=(1, 1), padding=(1, 1))
  )
  (fc): Linear(in_features=2048, out_features=10, bias=True)
)


		Parameters: 0.174634M
[OK]: Starting Training of Single Model

Epoch: 0
Train :: Loss: 1.58 | Accy: 26.58
Valid :: Loss: 1.71 | Accy: 37.57
Saving..
'run_epoch'  9478.21 ms

Epoch: 1
Train :: Loss: 1.67 | Accy: 38.86
Valid :: Loss: 1.56 | Accy: 41.39
Saving..
'run_epoch'  9370.38 ms

Epoch: 2
Train :: Loss: 1.37 | Accy: 43.83
Valid :: Loss: 1.41 | Accy: 48.06
…
